FuXi.pth (torch, 37802 bytes, 46 tensors)

conv3d.weight f4 [5, 5, 1, 2, 2]
0	0x3ebf75ee	0.3739466
1	0x3f083800	0.5321045
2	0x3ea9a4bb	0.33133492
3	0x3f10adce	0.56515205
4	0xc10628ac	-8.38493
5	0xc103bd56	-8.233725
6	0xc1061c5a	-8.381922
7	0xc105d8f2	-8.365465
8	0x3f897fac	1.0742087
9	0x3f2b4e5f	0.6691646
10	0x406ba99e	3.6822276
11	0x405a7c46	3.413835
12	0xbee9a9e0	-0.45637417
13	0x3e9a8f93	0.30187663
14	0xbf6872fa	-0.9080044
15	0xbf99fe59	-1.2030746
16	0xbe917049	-0.2840598
17	0x3d0da3f9	0.034580205
18	0x3e29d000	0.16583252
19	0xbd087996	-0.03331908
20	0xbe3d2ef4	-0.18474942
21	0xbe45942f	-0.19294809
22	0xbe1f51c0	-0.15558529
23	0xbd38e307	-0.045138385
24	0xc128965b	-10.536708
25	0xc1275f76	-10.460806
26	0xc128f71b	-10.5603285
27	0xc12aa631	-10.665574
28	0xbfbdea4b	-1.4837126
29	0xbf5a0b78	-0.8517375
30	0xbf430bb4	-0.7618973
31	0xbf49be9d	-0.7880648
32	0x3fdc90f5	1.7231737
33	0x403bec55	2.9362996
34	0xbf4d99e2	-0.8031293
35	0xbea1b16a	-0.3158067
36	0x3e1a230c	0.15052432
37	0x3e76d50a	0.24104705
38	0xbe9fa82f	-0.31183
39	0xbe120724	-0.14260536
40	0x3de456e6	0.11149387
41	0xbe764f71	-0.24053742
42	0xbeb1fd0a	-0.34763366
43	0xbe7bec6b	-0.24601905
44	0xc10010ea	-8.004129
45	0xc10aadf8	-8.667473
46	0xc0fe6e82	-7.9509897
47	0xc1010310	-8.063248
48	0x3fa9ac23	1.3255657
49	0x3f2f9c80	0.68598175
50	0xbfe5323a	-1.7905953
51	0xbf90515c	-1.1274829
52	0xbf98b42e	-1.1929986
53	0xbfc49d25	-1.5360457
54	0x400d9da6	2.212747
55	0x40443996	3.0660148
56	0xbe0b4495	-0.1360038
57	0xbee6abd8	-0.4505298
58	0x3f37d224	0.71805024
59	0xbdf92750	-0.121657014
60	0xbdb9ed13	-0.090784214
61	0x3d170760	0.036872268
62	0xbc0d624d	-0.008629394
63	0x3d73f641	0.059561018
64	0x409d2852	4.911172
65	0x4097895a	4.7355165
66	0x409b2bd6	4.849101
67	0x408fc91f	4.493301
68	0x4021c6a2	2.5277486
69	0x4043340e	3.0500522
70	0x3f611949	0.8792921
71	0x3fcc73f6	1.5972888
72	0xbfdd27dc	-1.7277789
73	0x3f2f9d1a	0.6859909
74	0xbf25d62c	-0.64779925
75	0x3d2d4a4c	0.042307183
76	0x3e5c4fff	0.21514891
77	0xbdb98503	-0.09058573
78	0x3ebbe2e4	0.3669654
79	0xbe894b3c	-0.26815212
80	0x3c5cddc2	0.013480606
81	0x3cd7d074	0.026344515
82	0x3dd5dae0	0.10442138
83	0x3d9296a5	0.071576394
84	0x4152beab	13.17155
85	0x41577535	13.466115
86	0x41535030	13.207077
87	0x4152f48b	13.184703
88	0xc00cbc96	-2.1990104
89	0xbfffbe33	-1.9979919
90	0xbfdd9630	-1.7311459
91	0xbff432ba	-1.907798
92	0x3f8a3d6f	1.0799998
93	0xbfaaf926	-1.3357284
94	0xbf81ecb3	-1.015036
95	0xbff5b178	-1.9194784
96	0xbee9fee6	-0.45702285
97	0x3e3770d2	0.17914131
98	0xbe0edecf	-0.13952182
99	0x3ed41917	0.41425392

conv3d.bias f4 [5]
0	0x402bb542	2.682938
1	0x3fd3cc99	1.6546813
2	0x40648318	3.5705013
3	0xbfa30807	-1.2736825
4	0xc083885f	-4.110397

layernorm.weight f4 [5]
0	0x3ebf6cbc	0.37387645
1	0x3f84c832	1.0373595
2	0x3f4c08bc	0.7970083
3	0x3f8ded9c	1.1088138
4	0x3fa71816	1.3054225

layernorm.bias f4 [5]
0	0x3ff3337d	1.9000088
1	0xbe00e46a	-0.12587133
2	0x3e31a6b2	0.17348745
3	0x3e47b9f4	0.19504529
4	0xbe75e178	-0.24011791

downblock.0.weight f4 [5, 5, 3, 3]
0	0xbd9e91eb	-0.077426754
1	0xbe97507e	-0.29553598
2	0xbf6d484a	-0.9268843
3	0x3f53fd43	0.8280832
4	0x3edfea92	0.4373365
5	0xbed02923	-0.40656385
6	0x3f4dc174	0.8037331
7	0x3ef8b741	0.48577312
8	0xbd798e4d	-0.060926724
9	0xbee73227	-0.4515545
10	0x3de24b1c	0.11049482
11	0xbea90570	-0.3301196
12	0xbdf471b4	-0.1193575
13	0xb995de8e	-0.0002858531
14	0xbe0bc62b	-0.13649814
15	0x3e7c399f	0.24631356
16	0x3eb79d9b	0.3586243
17	0x3e6ea12d	0.23303671
18	0xbea90c48	-0.33017182
19	0xbead04f0	-0.3379283
20	0x3d92cb20	0.07167649
21	0x3f51b1aa	0.8191172
22	0x3e9fda23	0.31221113
23	0x3eb410ba	0.3516901
24	0xbe87d1c2	-0.2652722
25	0xbea7a5fa	-0.32743818
26	0xbf003bc4	-0.50091195
27	0x3d55ca22	0.052194722
28	0x3de58ba9	0.11208279
29	0x3f3a0062	0.72656834
30	0xbee72a26	-0.45149344
31	0xbe70dae9	-0.23521008
32	0x3e8b107b	0.2716101
33	0xbec114d5	-0.37711206
34	0xbe917fe6	-0.2841789
35	0x3ee1f8c7	0.44135115
36	0x3f27fac5	0.6561702
37	0x3dbbfc04	0.091789275
38	0x3cf9e497	0.030504508
39	0x3d9df6b0	0.077130675
40	0xbe82f297	-0.25575706
41	0xbe883281	-0.2660103
42	0xbd08d9d4	-0.033410862
43	0xbc6d3df6	-0.014480105
44	0xbe91f3d5	-0.28506342
45	0xbec6b651	-0.3881097
46	0xbdb48ccb	-0.08815917
47	0xbed6497e	-0.41852945
48	0x3d2c56b0	0.04207486
49	0x3ef9a350	0.4875741
50	0x3d03b630	0.03215617
51	0xbf3328a3	-0.6998388
52	0x3d7a9276	0.061174832
53	0xbe284a44	-0.1643458
54	0xbeee105e	-0.46496862
55	0xbf056287	-0.52103466
56	0x3e536660	0.20644522
57	0x3da51bf7	0.080619745
58	0xbd8dfb9e	-0.06932758
59	0x3eafd131	0.34339288
60	0x3e7e3bbc	0.24827474
61	0xbebc7a18	-0.368119
62	0xbe2cdf0a	-0.16881958
63	0xbe9f1c8f	-0.31076476
64	0x3e5d65ef	0.21620916
65	0x3ee4d77e	0.44695657
66	0xbf2088f0	-0.6270895
67	0x3eeb6a13	0.45979366
68	0x3de26eaa	0.11056264
69	0xbecbaf38	-0.3978212
70	0x3eac0164	0.3359481
71	0x3d15bc49	0.036556516
72	0x3e915768	0.28386998
73	0xbdb116f3	-0.08646955
74	0xbdac5571	-0.08414734
75	0xbeac8aea	-0.33699733
76	0xbed98112	-0.42481285
77	0xbf3ea039	-0.7446323
78	0x3ea0b318	0.31386638
79	0x3e4a3c52	0.19749573
80	0xbcb78c07	-0.022405637
81	0x3f6c131a	0.92216647
82	0xbe29cad7	-0.16581284
83	0xbe0b0d60	-0.13579321
84	0x3f30b66f	0.6902837
85	0x3dff12b4	0.12454739
86	0xbe7f88ed	-0.24954577
87	0xbe8616e0	-0.26189327
88	0xbe587f3a	-0.21142283
89	0xbeb76d2f	-0.35825488
90	0xbd8a5677	-0.06754773
91	0xbe413393	-0.1886733
92	0xbf2a41af	-0.66506475
93	0x3e8ac4f1	0.2710338
94	0x3e14e82b	0.1454169
95	0xbed34985	-0.41267028
96	0x3e63fdee	0.22264835
97	0xbc84c8eb	-0.016209086
98	0xbe9f1ec4	-0.3107816
99	0xbdab19e7	-0.0835455
100	0x3e0780e2	0.13232759
101	0x3ef970c8	0.48718858
102	0xbf17785f	-0.59168047
103	0xbf0130ba	-0.50464976
104	0xbe2cfb80	-0.16892815
105	0x3e8957c4	0.26824772
106	0x3e48c733	0.19607238
107	0x3f07a3d6	0.5298437
108	0x3e81df40	0.2536564
109	0xbd134429	-0.035953674
110	0xbefa03ab	-0.48830923
111	0x3f08e4d5	0.5347417
112	0x3da300e1	0.07959152
113	0xbe6ee5bc	-0.23329824
114	0xbe72ff3a	-0.23730174
115	0xbe4188a8	-0.18899786
116	0xbebe37c8	-0.37151933
117	0xbe8b6f64	-0.27233422
118	0xbdb02ec4	-0.0860267
119	0xbd8e6bf6	-0.06954186
120	0x3eb8cc44	0.36093342
121	0x3edad723	0.4274226
122	0x3df5cad6	0.120015785
123	0x3ebd686d	0.36993733
124	0xbd045cc5	-0.032315034
125	0xbecd22c4	-0.40065587
126	0xbed6453d	-0.418497
127	0xbe8a2759	-0.26983145
128	0x3f24f532	0.6443664
129	0xbe3705bc	-0.17873281
130	0x3e2c15b2	0.16805151
131	0x3f8545b1	1.0411893
132	0xbf180a24	-0.59390473
133	0xbe07400f	-0.1320803
134	0x3e28daad	0.16489668
135	0xbf188542	-0.59578335
136	0x3eee86e8	0.465873
137	0x3f38271d	0.7193468
138	0xbf33cf2f	-0.7023801
139	0x3e7cd18d	0.24689312
140	0x3eb247f0	0.3482051
141	0xbe10f430	-0.1415565
142	0x3ecccd76	0.40000504
143	0x3ee8ab3f	0.4544315
144	0xbf22df3b	-0.6362187
145	0x3d5d415e	0.054017417
146	0x3e97017b	0.29493317
147	0xbe7e8d83	-0.2485867
148	0x3ea5d742	0.3239079
149	0x3ef80935	0.48444524
150	0xbecc24b0	-0.3987174
151	0xbf08e839	-0.53479344
152	0xbf6d5bfb	-0.92718476
153	0xbe31347b	-0.17305176
154	0xbd4dabc5	-0.05021264
155	0xbf0bb859	-0.5457817
156	0xbd6f4a05	-0.0584202
157	0x3cdf872f	0.02728614
158	0xbe90fe96	-0.28319234
159	0xbf54d62e	-0.8313931
160	0xbe2117b6	-0.15731701
161	0x3ee2bfa5	0.44286838
162	0x3f357f09	0.70896965
163	0xbd019dbc	-0.031644568
164	0xbe62cd33	-0.2214859
165	0x3f2b0aaa	0.6681315
166	0x3d313cca	0.043270864
167	0xbeb8523f	-0.3600025
168	0xbd497a79	-0.049189065
169	0xbe3967ee	-0.18106052
170	0xbe7fb7cc	-0.24972457
171	0x3f58ab3a	0.8463627
172	0x3e931b58	0.287318
173	0x3e91e3f2	0.2849422
174	0xbe518be2	-0.20463517
175	0xbeeb5c97	-0.45969078
176	0xbe0c18cc	-0.13681334
177	0x3dd91cbd	0.106011845
178	0xbd2fdf01	-0.042937282
179	0x3e7aacc2	0.24479964
180	0x3e2a282c	0.16616887
181	0x3f33065d	0.69931585
182	0xbecfd033	-0.4058853
183	0xbf2c5b02	-0.67326367
184	0x3e94d155	0.29065958
185	0xbf202586	-0.62557256
186	0xbd77c093	-0.060486387
187	0x3f2b86a7	0.6700234
188	0xbd8bde2e	-0.06829487
189	0xbce99915	-0.028515378
190	0xbf0451d0	-0.51687336
191	0x3e2f60cd	0.1712677
192	0x3ef93d50	0.4867959
193	0xbe9b5864	-0.30340874
194	0x3f0f6f5b	0.5602929
195	0x3db2374f	0.087019555
196	0xbf6435a8	-0.8914437
197	0x3d9b1f94	0.075743824
198	0xbef479db	-0.47749218
199	0x3b8e0a58	0.004334729
200	0x3e5b35c6	0.21407232
201	0x3d85a6dd	0.06525967
202	0x3d72faa3	0.059321057
203	0x3e83795b	0.25678524
204	0xbead55bb	-0.3385447
205	0xbf138701	-0.57627875
206	0xbe97f83d	-0.29681578
207	0xbdc3496d	-0.09535489
208	0x3e4b8090	0.19873261
209	0xbe881ed1	-0.2658601
210	0xbf067be0	-0.5253277
211	0xbe09aed1	-0.13445593
212	0xbe953333	-0.29140624
213	0xbe0fa845	-0.14029033
214	0x3e704c2b	0.23466556
215	0x3da4b0a9	0.08041508
216	0x3ee1df6d	0.44115773
217	0x3d463e72	0.048399396
218	0xbe9ec9a9	-0.3101323
219	0xbe0faae0	-0.14030027
220	0x3cae7212	0.021294627
221	0xbf37f4b3	-0.71857756
222	0xbda4c30e	-0.08045016
223	0x3d997c8d	0.07494459
224	0xbf0c982b	-0.5491969

downblock.0.bias f4 [5]
0	0x3d71d4e6	0.059040926
1	0x3f50be94	0.815408
2	0xbf07edf0	-0.5309744
3	0x3ea58152	0.32325226
4	0x3f29f9e8	0.6639695

downblock.1.weight f4 [5]
0	0x3f2394c3	0.6389887
1	0x3f160184	0.5859606
2	0x3f088c78	0.5333934
3	0x3f25bffd	0.64746076
4	0x3ee41fdd	0.4455556

downblock.1.bias f4 [5]
0	0x3b25f8b9	0.0025325252
1	0x3db5d0dc	0.088777274
2	0x3e2f215f	0.17102574
3	0x3edd22a3	0.43190488
4	0x3effc457	0.49954483

swin.blocks.0.attn.q_bias f4 [5]
0	0x3cfbf2a2	0.030755345
1	0x3f3f435c	0.7471216
2	0x3d3df988	0.04638055
3	0xbe8f523c	-0.27992427
4	0x3f1647cc	0.58703303

swin.blocks.0.attn.v_bias f4 [5]
0	0x3d72fbd3	0.05932219
1	0xbe9fb609	-0.3119357
2	0x3d874d17	0.066065006
3	0x3e196747	0.14980803
4	0x3d27c38c	0.040957972

swin.blocks.0.attn.cpb_mlp.0.weight f4 [512, 2]
0	0xbf061981	-0.52382666
1	0xbc065c9b	-0.00820079
2	0xbdeb68a7	-0.1149457
3	0xbf8c5d2f	-1.0965937
4	0xbda36cda	-0.07979746
5	0x3d42614b	0.047456067
6	0xbd3e44f7	-0.04645249
7	0x3c45ed96	0.012080571
8	0x3e2a9354	0.16657764
9	0x3ed6b978	0.41938376
10	0xbe86071a	-0.26177293
11	0xbe8d9ca3	-0.27658567
12	0x3ea4e8f2	0.32208973
13	0xbf098c9c	-0.5373018
14	0x3e8b45ff	0.2720184
15	0x3d325086	0.043533824
16	0x3f251728	0.6448846
17	0x3f1a32f7	0.60234016
18	0x3c35b598	0.011090659
19	0x3f1b2600	0.6060486
20	0x3e3e203c	0.18566984
21	0xbe0f42b4	-0.13990289
22	0x3d479ef0	0.04873556
23	0xbeb4d01b	-0.35315022
24	0x3d8b3725	0.06797627
25	0x3f56fffd	0.8398436
26	0xbcf8740a	-0.03032877
27	0xbc5a1c5c	-0.013312425
28	0xbf475488	-0.7786336
29	0x3e39544d	0.18098564
30	0xbe93e405	-0.28884903
31	0xbd3172cf	-0.04332238
32	0xbcca6d5f	-0.024710355
33	0x3c8a66b0	0.016894668
34	0xbc089184	-0.008335475
35	0x3d91e58c	0.07123861
36	0x3e16ccfc	0.14726633
37	0xbb92fd80	-0.004485786
38	0x3ee258a4	0.44208252
39	0x3d0b53d2	0.034015484
40	0x3e2b728a	0.16742912
41	0xbcb7398e	-0.022366311
42	0xbe7c6e57	-0.24651466
43	0x3e7a058f	0.24416183
44	0xbdb96f0e	-0.09054385
45	0x3f73ec8f	0.95282835
46	0xbd29e50f	-0.041478213
47	0x3d0a5b2d	0.03377836
48	0xbc9db082	-0.019249205
49	0xbe885a19	-0.2663124
50	0x3f127e13	0.57223624
51	0x3d189239	0.037248824
52	0xbe832127	-0.2561123
53	0xbeab8fce	-0.33508152
54	0x3d485824	0.048912182
55	0x3f3ace8f	0.72971433
56	0x3e7493b9	0.23884477
57	0x3ebf4658	0.37358356
58	0x3ec0a253	0.37623844
59	0x3e27c91b	0.1638531
60	0xbca4f75c	-0.020137481
61	0x3d423d04	0.04742147
62	0xbcc01a85	-0.023450145
63	0xbeb6460c	-0.35600317
64	0xbd406b3b	-0.046977263
65	0xbe8c3bc6	-0.27389354
66	0x3e50bd4d	0.20384713
67	0x3e324999	0.17410888
68	0xbc243914	-0.010023374
69	0x3d4f2374	0.05057092
70	0x3d9697c8	0.07353169
71	0xbd486ee0	-0.048933864
72	0x3b445e55	0.0029963453
73	0xbd627bd1	-0.05529386
74	0x3bb2f1e2	0.0054609636
75	0x3d69f22a	0.05711571
76	0x3bcb1b76	0.006198342
77	0x3b4d5636	0.0031331903
78	0x3e820c15	0.25399843
79	0xbcea5ba7	-0.028608156
80	0x3c89b29d	0.016808802
81	0x3f3563f3	0.70855635
82	0xbccb5051	-0.024818571
83	0x3d82bde7	0.06383877
84	0xbd24e9f8	-0.040262192
85	0xbd475528	-0.048665196
86	0x3d9c6be7	0.07637768
87	0xbe0d7758	-0.13815057
88	0xbeb3d1a3	-0.35120878
89	0x3d308488	0.04309514
90	0x3e1c407f	0.15258978
91	0xbf2cea9b	-0.6754548
92	0x3cf9890d	0.030460859
93	0xbe81b51f	-0.25333497
94	0xbcf08dc0	-0.029364467
95	0x3e95a392	0.29226357
96	0xbe16170b	-0.14657228
97	0x3dfa24e9	0.12214071
98	0x3ebb00ac	0.3652395
99	0x3e3dcb82	0.18534663
100	0xbd2df167	-0.042466547
101	0xbf336699	-0.70078427
102	0x3be044a0	0.0068441182
103	0x3f40862f	0.7520475
104	0xbb476e5d	-0.0030430772
105	0x3d4b9b29	0.04970852
106	0xbd3b707f	-0.04576158
107	0xbe111f30	-0.14172053
108	0xbd9b8690	-0.07594025
109	0xbf81e9a9	-1.0149432
110	0x3e68f9cf	0.22751544
111	0xbf3ce249	-0.73782784
112	0xbc4d28df	-0.012521951
113	0xbd3d9d48	-0.046292573
114	0xbd9c80d8	-0.076417625
115	0xbbd34f52	-0.0064486647
116	0xbe150208	-0.14551556
117	0xbc6dcaae	-0.014513655
118	0xbdc9d577	-0.09855168
119	0x3e5a6b4c	0.21329993
120	0xbe9c242c	-0.30496347
121	0x3e6620c0	0.2247343
122	0xbb4471c7	-0.0029975043
123	0xbcadddad	-0.021223867
124	0xbe9c7065	-0.305545
125	0xbe2b8f24	-0.16753823
126	0xbdae9110	-0.08523762
127	0xbf880378	-1.0626059
128	0x3e940c41	0.289156
129	0xbc55f27a	-0.013058299
130	0xbc988cdf	-0.01862186
131	0xbe56b81f	-0.20968674
132	0x3cfa61f1	0.03056428
133	0x3dfdafde	0.1238706
134	0x3cb62660	0.022235096
135	0xbe0bab84	-0.13639647
136	0x3e752c24	0.2394262
137	0xbe96828f	-0.29396483
138	0x3cc02a00	0.023457527
139	0xbe5f5716	-0.21810564
140	0xbea9ae5d	-0.3314084
141	0x3d90b239	0.07065243
142	0xbc182eaf	-0.009288474
143	0xbd47d5e8	-0.04878798
144	0x3dc683b2	0.09693088
145	0x3eafb493	0.34317455
146	0x3df72f51	0.12069572
147	0xbe8991b2	-0.2686897
148	0xbb72c123	-0.0037041388
149	0x3d893154	0.06698862
150	0xbd76ec1f	-0.060283776
151	0x3ca107f6	0.019657116
152	0x3e6eead1	0.23331763
153	0x3c1eabb0	0.009684488
154	0xbe7435a8	-0.23848593
155	0xbd02419a	-0.031800844
156	0x3e0137ce	0.12618944
157	0x3c29f679	0.010373705
158	0xbea499e2	-0.32148653
159	0x3e6ad0f4	0.22931272
160	0x3f032872	0.5123359
161	0x3e07264c	0.13198203
162	0xbca8dea0	-0.020613968
163	0xbf000c0b	-0.50018376
164	0x3ec21c34	0.37912142
165	0xbe0705c5	-0.13185795
166	0x3d829088	0.063752234
167	0x3dde2192	0.10846247
168	0x3d0df399	0.03465614
169	0xbdf4b033	-0.1194767
170	0x3b65606e	0.0035000104
171	0xbf7735ee	-0.96566665
172	0xbc587c38	-0.01321321
173	0x3d9ee9e0	0.07759452
174	0xbf0f541a	-0.55987704
175	0x3d0073c0	0.031360388
176	0x3c928189	0.017884033
177	0x3f68a0d4	0.90870404
178	0xbe4f13ba	-0.20222369
179	0x3f8d7304	1.1050725
180	0xbd7ebb9a	-0.06219063
181	0xbf6fd6dd	-0.9368723
182	0xbcbf52c6	-0.0233549
183	0xbdbc0b45	-0.09181837
184	0xbe4fd343	-0.20295434
185	0x3e3a13a4	0.18171555
186	0x3d46e297	0.048555937
187	0x3d266637	0.040624823
188	0xbe18a5c5	-0.14906986
189	0x3e01b8d1	0.12668158
190	0x3bf69acb	0.007525777
191	0xbc0c37b4	-0.008558203
192	0xbd0bb4be	-0.034107916
193	0x3ccfae73	0.025351739
194	0xbc851355	-0.01624457
195	0xbc4f0675	-0.012635817
196	0x3dcebca7	0.10094576
197	0xbeedd938	-0.46454787
198	0x3dd87ee2	0.10571076
199	0xbcac958b	-0.021067401
200	0xbc282543	-0.01026279
201	0x3dc43b7e	0.0958166
202	0xbe022307	-0.12708674
203	0xbf8d03d5	-1.1016794
204	0xbf092c50	-0.5358324
205	0xbf2b94a1	-0.67023665
206	0x3e5d0e7e	0.2158756
207	0x3dfa677e	0.12226771
208	0x3d845dfd	0.06463239
209	0xbeb1efe1	-0.34753326
210	0xbdcb069e	-0.099133715
211	0x3dbe3159	0.09286756
212	0xbd8a8200	-0.06763077
213	0xbd0d6b70	-0.03452629
214	0xbd89eb91	-0.06734384
215	0x3da173b8	0.078834
216	0xbd0efdda	-0.03491006
217	0x3e2ec637	0.170678
218	0x3e5bc531	0.21461941
219	0xbf10ab7a	-0.5651165
220	0xbe014c74	-0.12626821
221	0x3f58b9d0	0.8465853
222	0xb88fc000	-6.854534e-05
223	0x3e13951c	0.1441235
224	0xbdd77281	-0.10519887
225	0x3dff66d6	0.12470786
226	0xbed7260c	-0.42021215
227	0xbf049c90	-0.51801395
228	0x3e7d8364	0.24757153
229	0x3db8a3e0	0.09015632
230	0xbe3da276	-0.18519005
231	0xbe2fbe13	-0.17162351
232	0xbc3c8c36	-0.011508038
233	0x3ce68c8c	0.02814319
234	0x3e1376c5	0.14400776
235	0x3eaab5c0	0.3334179
236	0xbdf6630d	-0.12030611
237	0xbdcded51	-0.1005503
238	0xbcd5bca0	-0.02609092
239	0x3d058a60	0.032602668
240	0x3b0a90bd	0.00211434
241	0x3ea0dad9	0.31416968
242	0xbf027dd7	-0.50973266
243	0xbdfee6b6	-0.12446348
244	0x3e672752	0.22573593
245	0xbe393829	-0.1808783
246	0xbdb81aaa	-0.08989461
247	0x3e1fdccc	0.15611571
248	0xbcc7a65d	-0.02437132
249	0x3a8b20ee	0.0010614672
250	0x3c9a234e	0.018815663
251	0x3d303198	0.043016046
252	0xbdf2e136	-0.11859362
253	0x3f4c36d6	0.79771173
254	0x3b16e8b2	0.002302688
255	0x3cc4af4d	0.024009371

swin.blocks.0.attn.cpb_mlp.0.bias f4 [512]
0	0xbf37d256	-0.7180532
1	0x3d338f3e	0.04383778
2	0xbe81840a	-0.2529605
3	0xbda766ba	-0.081738904
4	0xbf3c2f35	-0.7350953
5	0xbf19e9bc	-0.60122275
6	0xbf38a624	-0.7212851
7	0xbf00a361	-0.50249296
8	0x3ea018a8	0.3126881
9	0xbefb6b96	-0.4910552
10	0xbec8e29c	-0.3923539
11	0xbf194a44	-0.59878945
12	0xbf39bf7f	-0.72557825
13	0xbd9e2d7c	-0.07723519
14	0x3d7cb3fc	0.061695084
15	0xbeb3d479	-0.3512304
16	0xbdeeed7f	-0.116663925
17	0xbe2fcec2	-0.17168716
18	0xbe7d0b9a	-0.24711457
19	0xbf0ff9de	-0.5624064
20	0xbe941846	-0.2892477
21	0xbf19ae43	-0.6003153
22	0xbed9659c	-0.42460334
23	0xbdc071c9	-0.09396703
24	0xbec5311f	-0.3851404
25	0xbf42e705	-0.7613376
26	0xbf23f43c	-0.6404455
27	0xbf1f38bb	-0.6219594
28	0xbf441e7b	-0.7660901
29	0xbf1d710d	-0.61500627
30	0xbe42dda9	-0.19029869
31	0xbef66a74	-0.48128092
32	0xbeb93a49	-0.3617728
33	0xbeee65ab	-0.46561942
34	0xbe75bd51	-0.23998
35	0xbe7777ba	-0.24166766
36	0xbdaeda89	-0.08537776
37	0xbdebfe3f	-0.11523103
38	0xbe0b2602	-0.13588718
39	0xbec380e1	-0.38184264
40	0xbf1387de	-0.5762919
41	0xbdc0b4ae	-0.09409462
42	0xbde20a0c	-0.110370725
43	0xbe91f038	-0.28503585
44	0xbef11e95	-0.47093645
45	0xbeab34a6	-0.33438605
46	0xbeb56137	-0.35425732
47	0xbed0af31	-0.4075866
48	0xbea22014	-0.316651
49	0xbf276d2f	-0.65400976
50	0xbd74babf	-0.059748407
51	0xbe538917	-0.20657764
52	0xbe538e04	-0.20659643
53	0xbe5d3fc0	-0.2160635
54	0x3d9d24a2	0.07673003
55	0xbeac8cbf	-0.3370113
56	0xbe3e4513	-0.18581037
57	0xbe5f2fa0	-0.21795511
58	0xbe5fa1e6	-0.21839103
59	0xbeb170fa	-0.34656507
60	0xbf236859	-0.63831097
61	0xbdd799d3	-0.105273865
62	0xbf0e44a9	-0.5557352
63	0x3dad13c0	0.08451033
64	0xbea4b540	-0.32169533
65	0xbebb8dfc	-0.36631763
66	0xbd8b17eb	-0.06791671
67	0xbee5dd92	-0.44895607
68	0xbf18c073	-0.59668654
69	0xbec870b7	-0.39148495
70	0xbf11d763	-0.5696928
71	0xbe7575e1	-0.23970748
72	0xbef1e0b7	-0.47241756
73	0xbee96f69	-0.45592812
74	0xbe4b4524	-0.19850594
75	0xbe7add93	-0.24498586
76	0xbea73227	-0.3265545
77	0xbed1a7c4	-0.40948308
78	0xbe85990e	-0.26093334
79	0xbf329233	-0.6975433
80	0xbf3960cd	-0.7241333
81	0xbf28b4a3	-0.6590063
82	0xbf28e6fb	-0.6597745
83	0xbea1da05	-0.31611648
84	0xbe65c4ae	-0.22438309
85	0xbf40dd5d	-0.75337774
86	0xbe5a8e01	-0.21343233
87	0xbf2a6bd7	-0.665708
88	0xbf3b80d3	-0.73243445
89	0xbefae14a	-0.49000007
90	0x3d8326da	0.06403895
91	0xbe760a8f	-0.24027465
92	0xbed47c26	-0.41500968
93	0xbe1d26c2	-0.15346816
94	0xbe982c0a	-0.297211
95	0xbdb02ece	-0.08602677
96	0xbd963bc0	-0.07335615
97	0xbe17a6ae	-0.14809677
98	0xbea87f79	-0.32909754
99	0xbe9400a8	-0.2890675
100	0xbe79cb18	-0.2439388
101	0x3d509e37	0.050932135
102	0xbeb625c0	-0.35575676
103	0xbed7fe81	-0.4218636
104	0xbef81154	-0.4845072
105	0xbe5b9da1	-0.2144685
106	0xbf3065d1	-0.6890536
107	0xbe2bb705	-0.16769035
108	0xbe9e7a5d	-0.3095273
109	0xbf29f2e6	-0.6638626
110	0xbec0aa71	-0.37630036
111	0xbe92614a	-0.2858985
112	0xbe7df263	-0.24799494
113	0xbe8d002c	-0.27539194
114	0xbf10230d	-0.56303483
115	0xbedac312	-0.42726952
116	0xbdcad92b	-0.09904703
117	0xbf0ca185	-0.5493396
118	0xbe9233d9	-0.28555182
119	0xbecb040a	-0.3965152
120	0xbef15a0d	-0.47139016
121	0xbf2e9c53	-0.6820728
122	0xbee3da8f	-0.44502684
123	0xbe9e91a7	-0.309705
124	0xbe34971f	-0.17635773
125	0xbdbc177e	-0.09184168
126	0xbf078acd	-0.5294617
127	0xbdfe0add	-0.12404416
128	0xbf17de4a	-0.5932356
129	0xbe11c659	-0.1423582
130	0xbec182b7	-0.3779504
131	0xbf090ea8	-0.5353799
132	0x3e1ce2b8	0.15320861
133	0xbe9c4cd6	-0.3052737
134	0xbe7f8c4e	-0.24955866
135	0xbf17baaa	-0.592692
136	0xbdbfd647	-0.09367042
137	0xbeee8a00	-0.4658966
138	0xbe9177de	-0.28411764
139	0xbf4bfc50	-0.79681873
140	0xbe98b24f	-0.2982354
141	0x3d2165ac	0.039403602
142	0xbf3807d3	-0.7188694
143	0xbe2e503f	-0.17022799
144	0xbeae189a	-0.34003145
145	0xbed668b6	-0.41876763
146	0xbee498e7	-0.44647905
147	0xbe950bc5	-0.29110542
148	0xbf1561f8	-0.58352613
149	0xbdf4c1a5	-0.11950997
150	0xbf17ddbe	-0.59322727
151	0x3dd3e52c	0.103464454
152	0xbe027c39	-0.127427
153	0xbf384a84	-0.719887
154	0xbf35f1b5	-0.7107194
155	0xbe9bea66	-0.3045227
156	0xbe1388a8	-0.14407599
157	0xbf46d5a7	-0.7766976
158	0xbea30295	-0.31837907
159	0xbe29925e	-0.16559741
160	0xbf20f651	-0.6287585
161	0xbefc68f4	-0.49298823
162	0xbe85b6b9	-0.2611597
163	0xbe1ce715	-0.15322526
164	0xbf18c1a7	-0.5967049
165	0xbe7ca03b	-0.24670498
166	0xbe80a45c	-0.25125396
167	0xbf3ec3ef	-0.7451772
168	0xbf5de6e1	-0.8668042
169	0xbe0b7749	-0.13619722
170	0xbf6ad5e9	-0.9173265
171	0xbe901bd9	-0.28146246
172	0xbeada65d	-0.33915988
173	0xbf190982	-0.5978013
174	0xbe9be6c7	-0.30449507
175	0xbf0f8cef	-0.5607442
176	0xbf237e72	-0.63864815
177	0xbefce15a	-0.4939068
178	0xbf1c57d9	-0.61071545
179	0xbeeb9bb8	-0.4601724
180	0xbecfa23e	-0.40553468
181	0xbf1aa76b	-0.6041171
182	0xbdcd4339	-0.10022587
183	0xbeadc1cf	-0.33936927
184	0xbf828cd0	-1.0199223
185	0xbf1188a4	-0.5684912
186	0xbe9517c7	-0.29119703
187	0xbe1bc4a1	-0.15211727
188	0xbeb1f75f	-0.34759042
189	0xbf3a9d16	-0.72895944
190	0xbef37df1	-0.47557023
191	0xbf371a45	-0.7152446
192	0xbdf1c957	-0.11805981
193	0xbf20ca44	-0.6280863
194	0xbe66ca86	-0.22538194
195	0xbf29610c	-0.66163707
196	0xbf07fb37	-0.531177
197	0xbe101a95	-0.1407264
198	0xbe986b2f	-0.29769275
199	0xbe2d6f23	-0.16936927
200	0xbe236b46	-0.1595889
201	0xbeee1c97	-0.46506187
202	0xbef03f56	-0.4692332
203	0xbdbc413c	-0.0919213
204	0xbe9717dd	-0.29510394
205	0xbe89f4b9	-0.2694452
206	0xbf31d2c5	-0.69462234
207	0xbed608d6	-0.41803616
208	0xbec3a2c9	-0.38210133
209	0xbf1cecf8	-0.61299086
210	0xbe4b749e	-0.19868705
211	0xbe4d876e	-0.20071194
212	0xbf3e0c80	-0.74237823
213	0xbe8a5f52	-0.2702585
214	0xbdb1f1a5	-0.08688668
215	0xbe01222b	-0.1261069
216	0xbc82bc2d	-0.01595887
217	0x3dfb8352	0.12280907
218	0xbec2c5b6	-0.38041466
219	0xbee9b559	-0.4564617
220	0xbed99753	-0.42498264
221	0xbeec647c	-0.46170413
222	0xbf42753e	-0.7596015
223	0xbec0c4cb	-0.3765014
224	0xbf0f300e	-0.559327
225	0x3d9a7aa2	0.075429216
226	0xbf1a53e4	-0.60284257
227	0xbee69cba	-0.45041448
228	0xbe2e0071	-0.16992356
229	0xbf2ed547	-0.68294185
230	0xbdf360fb	-0.11883732
231	0xbe03e806	-0.12881479
232	0xbe7269b4	-0.23673135
233	0xbf06f968	-0.52724314
234	0x3da7cde6	0.08193569
235	0xbd217402	-0.039417274
236	0xbd8b65d0	-0.068065286
237	0xbe49c5ff	-0.19704436
238	0xbda65dbc	-0.08123347
239	0xbf1a3bf8	-0.60247755
240	0xbea01f77	-0.31274006
241	0xbea4f3eb	-0.32217345
242	0xbecad72c	-0.39617288
243	0xbf285f4b	-0.65770406
244	0xbe85e664	-0.26152337
245	0x3ec160c5	0.37769142
246	0xbf23b47f	-0.6394729
247	0xbf291baf	-0.66057867
248	0xbf0d5261	-0.55203825
249	0xbef02787	-0.46905157
250	0xbf0c3e8a	-0.5478293
251	0xbec076b4	-0.37590563
252	0xbe103981	-0.14084436
253	0xbf00164b	-0.50034016
254	0xbead8084	-0.33887112
255	0xbf29df47	-0.6635632

swin.blocks.0.attn.cpb_mlp.2.weight f4 [1, 512]
0	0x3d2fe98f	0.04294735
1	0x3ebaf275	0.36513105
2	0x3d0bed06	0.03416159
3	0x3d116810	0.035499632
4	0x3ca71b95	0.020398894
5	0xbc58f36c	-0.01324163
6	0x3f26a9cf	0.6510286
7	0x3e019231	0.12653424
8	0xbebce8eb	-0.36896452
9	0x3eb2c2af	0.34914157
10	0xbc600d3c	-0.01367503
11	0xbb98ba60	-0.0046608895
12	0x3f1f2345	0.6216319
13	0xbb714d1c	-0.0036819642
14	0xbeac5bf9	-0.3366392
15	0xbd48347d	-0.04887818
16	0x3d379946	0.044823907
17	0xbcd49016	-0.025947612
18	0xbc10620c	-0.008812439
19	0x3e776641	0.241601
20	0xbc1a83e5	-0.00943086
21	0xbcf4cb71	-0.029882165
22	0x3e08d617	0.13362919
23	0x3d3c7455	0.04600938
24	0x3d92f7a7	0.07176142
25	0x3baa2efc	0.0051935893
26	0xbce5f9f7	-0.028073294
27	0x3eeb178b	0.459164
28	0x3cf36bda	0.029714514
29	0x3dbd439a	0.092414096
30	0x3c378621	0.011201412
31	0xbc0fe61c	-0.00878289
32	0x3d8900c4	0.06689599
33	0xba5e0936	-0.00084700005
34	0xbc9f52ec	-0.01944872
35	0x3c867caa	0.016416866
36	0xbc8a33fd	-0.016870493
37	0x3d3e6827	0.046486046
38	0xbd1cdd36	-0.0382969
39	0x3b7e7362	0.0038826098
40	0x3ee31912	0.44355065
41	0x3b15ae9b	0.0022839669
42	0xbce39e04	-0.027785309
43	0xbb861ffa	-0.0040931674
44	0xbb76cf73	-0.003766027
45	0xbe2dfef0	-0.16991782
46	0x3d185992	0.037194796
47	0x3cb9b84d	0.02267089
48	0xbacec140	-0.0015774146
49	0xbd0f950e	-0.03505426
50	0x3d1f5334	0.038897708
51	0x3de0dac8	0.10979229
52	0xbb9d9ed1	-0.004810192
53	0xbced33e8	-0.028955415
54	0x3eb61f16	0.35570592
55	0xbe453680	-0.19259071
56	0xbcac8b45	-0.021062503
57	0xbd1e6b64	-0.038676634
58	0x3cf7a6d3	0.030230915
59	0xbd05b9aa	-0.032647766
60	0xbcb1512c	-0.021645151
61	0xbc7bf9c2	-0.015379371
62	0xbb928bff	-0.0044722552
63	0x3ebfc09a	0.3745163
64	0xbaa8253b	-0.0012828478
65	0xbc9c9e4f	-0.019118456
66	0xbcc34c06	-0.023839962
67	0x3d33cc7b	0.04389618
68	0x3d0021aa	0.031282105
69	0x3cd6613a	0.026169408
70	0xbdee075d	-0.11622498
71	0x3c875f8c	0.016525052
72	0xbc7c9d8c	-0.0154184215
73	0xbcc67c97	-0.024229331
74	0x3d0617bc	0.03273748
75	0x3d7ea655	0.062170345
76	0xba960ab1	-0.0011447278
77	0xbd13e1b5	-0.036103923
78	0xbc98c519	-0.018648671
79	0xbcc0c39f	-0.02353078
80	0xbb7b8bb2	-0.0038382825
81	0xbd8247e7	-0.063613705
82	0xbc8669d9	-0.016407894
83	0xbca5f52d	-0.02025851
84	0xbca2d4de	-0.019876894
85	0x3ff3e2c4	1.9053578
86	0xbd41e93b	-0.047341567
87	0x3c25af74	0.010112632
88	0x3ee90d98	0.45518184
89	0x3f505fc1	0.8139611
90	0x3e895eee	0.26830238
91	0xbb8ce784	-0.0043000598
92	0xbd16046d	-0.036625315
93	0xbb36ef8c	-0.0027913777
94	0x3d1ab50a	0.03777031
95	0x3d53b09d	0.051682103
96	0x3d50ebd3	0.05100615
97	0xbd23aebd	-0.039961565
98	0xbd6cfb70	-0.057856977
99	0x3b5ca260	0.003366612
100	0xbbb6cb1f	-0.005578413
101	0x3ebfc190	0.37452364
102	0xbf0a15a4	-0.5393927
103	0x3c07ad8a	0.008281121
104	0xbb2dff45	-0.0026549858
105	0x3b6c8c35	0.0036094312
106	0x3cb221aa	0.021744568
107	0x3d0d4998	0.034494013
108	0x3d190f2f	0.037367996
109	0x3f28b6ca	0.65903914
110	0x3ecc55e0	0.39909267
111	0xbd131afd	-0.03591441
112	0x3d4c4c5f	0.04987752
113	0xbeab2f86	-0.33434695
114	0xbc1a03b8	-0.009400301
115	0xbd693204	-0.056932464
116	0x3c84c98c	0.016209386
117	0x3c35c8e4	0.011095259
118	0x3a23307d	0.0006225182
119	0x3cf70cb6	0.030157428
120	0x3e0dd707	0.13851558
121	0xbd4f194e	-0.05056124
122	0x3c407827	0.011747397
123	0xbd2cd5d3	-0.042196106
124	0xbd46bb5a	-0.048518516
125	0xbbe7a595	-0.0070692995
126	0xbbbf44db	-0.0058370656
127	0xbcdba4bb	-0.026811948
128	0x3c248482	0.010041358
129	0x39fedd4d	0.00048611537
130	0xbaf5445d	-0.001871239
131	0x3d2ce8f8	0.042214364
132	0xbee5bf48	-0.448725
133	0xbda10572	-0.07862367
134	0xbbb4dae8	-0.0055192597
135	0x3ea023e0	0.3127737
136	0xbd65f997	-0.05614623
137	0x3dfd216b	0.123598896
138	0x3ca60381	0.020265343
139	0x3f2c761a	0.6736771
140	0xb9ead4a0	-0.00044790376
141	0x3ec3c8a2	0.38239008
142	0x3d0e5484	0.03474857
143	0x3cebacb0	0.028768867
144	0xbf2727f5	-0.65295345
145	0x3c8222a3	0.015885657
146	0x3d7db06e	0.061935835
147	0xbd8c0e34	-0.068386465
148	0xbd84f3b8	-0.06491798
149	0xbd2f113f	-0.042741057
150	0x3d03aa21	0.03214467
151	0xbaa7690a	-0.0012772393
152	0xbb9c9fe9	-0.004779805
153	0x3eda6e3d	0.4266223
154	0xbc879d21	-0.016554417
155	0x3c30226b	0.010750393
156	0xbd728c2d	-0.059215713
157	0x3ddae125	0.10687474
158	0x3c8c63a5	0.017137358
159	0xbce58a9f	-0.028020201
160	0xbc333cd0	-0.010939792
161	0x3c78531e	0.015156535
162	0xbca5ec92	-0.020254407
163	0x3d2c5254	0.0420707
164	0x3e1cb36e	0.15302822
165	0x3cc1a406	0.023637783
166	0xbc4cb2fa	-0.012493843
167	0x3f124d49	0.5714918
168	0x3f8ef77b	1.1169275
169	0x3d3e8870	0.046516836
170	0x3d49176b	0.0490946
171	0x3d05d287	0.032671478
172	0xbe55e653	-0.20888643
173	0x3f396163	0.72414225
174	0xbc15184d	-0.009100032
175	0xbc99869a	-0.01874094
176	0x3f09aed2	0.5378238
177	0x3ea44f36	0.32091683
178	0xbd365db4	-0.044522956
179	0xbc4aaa24	-0.012369666
180	0xbbe76eee	-0.0070627844
181	0xbd5a2a2a	-0.053262867
182	0x3d36ff1c	0.044676885
183	0x3c967e6f	0.018370835
184	0x3c9462f0	0.018113583
185	0x3cbcd7f0	0.023052186
186	0x3b64b493	0.003489767
187	0x3b8c9898	0.0042906515
188	0xbd22b4fa	-0.039723374
189	0xbd283bf6	-0.04107281
190	0xbc8c73c2	-0.017145041
191	0x3fe3636e	1.7764719
192	0xbcdb86d1	-0.026797684
193	0x3bd58720	0.0065163523
194	0x3b4c131d	0.0031139322
195	0xbd1da004	-0.03848268
196	0xbd7a3a09	-0.061090503
197	0x3bf61954	0.0075103436
198	0x3c91398f	0.017727641
199	0x3bc8aede	0.0061243614
200	0xbd0f95b7	-0.03505489
201	0xbd4e59ac	-0.050378487
202	0x3d526224	0.051363125
203	0xbcdb6333	-0.0267807
204	0xbc97ca3f	-0.018529056
205	0x3d24b1d8	0.040208668
206	0x3d2272b9	0.03966019
207	0x3e5c93f4	0.21540815
208	0x3cbd6ec4	0.023124106
209	0xbbac1221	-0.0052511846
210	0xbbeeaa89	-0.007283513
211	0xbcddf946	-0.027096402
212	0x3bb6a890	0.0055742934
213	0x3bb34f07	0.0054720673
214	0x3c53496d	0.012895924
215	0xbd9bb203	-0.076023124
216	0xbe40f655	-0.18843968
217	0xbedf207b	-0.43579468
218	0x3bb593d6	0.005541305
219	0xbd8f54ce	-0.06998597
220	0x3d2d8189	0.042359862
221	0x3aff41c5	0.0019474557
222	0x3cb79788	0.022411123
223	0x3c9732aa	0.018456776
224	0x3e788b7e	0.24271962
225	0x3e912f55	0.28356424
226	0x3f894da1	1.0726815
227	0x3ca01150	0.019539505
228	0x3ce04664	0.027377315
229	0x3ab66d00	0.0013917983
230	0x3ce7e3a6	0.028306793
231	0x3d078222	0.03308309
232	0x3b8b3a1e	0.0042488715
233	0xba9a7872	-0.0011785163
234	0x3ec0b9c2	0.37641722
235	0x3d35c950	0.04438144
236	0x3be580f8	0.0070038997
237	0x3cd28a28	0.025700644
238	0x3e133554	0.14375812
239	0x3e7d3773	0.24728183
240	0x3c76d60c	0.015065681
241	0x3cd81767	0.026378347
242	0x3b97d092	0.004633018
243	0x3f818f05	1.0121771
244	0xbca6bd31	-0.020353885
245	0xbc9d966b	-0.019236764
246	0x3c4c57cc	0.012472104
247	0x3dc00b66	0.09377174
248	0xbf575b67	-0.84123844
249	0xbc166803	-0.009180072
250	0x3f8fdd41	1.1239396
251	0x3c7d1f63	0.015449378
252	0xbd39c931	-0.045357887
253	0xbd0055d9	-0.03133187
254	0x3d917578	0.071024835
255	0x3b3a8cd0	0.0028465278

swin.blocks.0.attn.qkv.weight f4 [15, 5]
0	0x3e0c363d	0.13692565
1	0x3ddeb3c8	0.10874134
2	0x3e1f4158	0.1555227
3	0x3cb1e85b	0.021717241
4	0x3ebc8c67	0.36825868
5	0x3ea543ac	0.32278192
6	0x3f8e58b8	1.1120825
7	0x3f3d33f4	0.739074
8	0xbf4c5d3e	-0.79829776
9	0x3ef6e1ae	0.48219055
10	0x3ec951fa	0.39320356
11	0xbf2fcb42	-0.6866952
12	0xbf767df7	-0.9628596
13	0xbeeaa27a	-0.45827085
14	0x3f65e9f3	0.89810103
15	0x3e5a97e3	0.21347003
16	0x3f3a59c0	0.727932
17	0x3e27692b	0.16348712
18	0x3ec3f10d	0.38269845
19	0xbf631754	-0.8870747
20	0x3ee805cf	0.45316932
21	0xbe8b53e4	-0.2721244
22	0xbf462227	-0.7739586
23	0xbeebcbc1	-0.4605389
24	0xbf2993f4	-0.66241384
25	0x3edc2a01	0.43000796
26	0x3e931f2f	0.2873473
27	0xbedee89c	-0.43536842
28	0xbeb39dfc	-0.3508147
29	0x3ec4014e	0.38282245
30	0x3c4c74df	0.012479036
31	0x3eef58fe	0.46747583
32	0x3f22f39b	0.6365296
33	0x3ea4b347	0.32168028
34	0xbdcc9272	-0.0998887
35	0x3ed91cef	0.42404887
36	0x3e2a596c	0.16635674
37	0x3df0ee52	0.11764206
38	0x3f2c0727	0.67198414
39	0x3f14041e	0.5781878
40	0xbe11cfa1	-0.1423936
41	0xbf20d60a	-0.628266
42	0xbf2e73df	-0.68145555
43	0xbf213ec1	-0.6298638
44	0xbf34b97a	-0.70595515
45	0x3e2a75df	0.16646527
46	0xbe1af498	-0.15132368
47	0x3f86e015	1.0537134
48	0xbd57a73f	-0.052649733
49	0xbe000ffb	-0.12506096
50	0xbf07adf0	-0.5299978
51	0xbf053fee	-0.52050674
52	0xbea75f2d	-0.326898
53	0x3f6a8150	0.91603565
54	0x3f016397	0.5054259
55	0x3f30f5b7	0.6912493
56	0x3eecbf6d	0.46239796
57	0x3eeae078	0.4587438
58	0xbeaad427	-0.33364984
59	0xbf85baf6	-1.0447681
60	0xbf1eac41	-0.6198159
61	0xbf0aac2e	-0.54168975
62	0x3ed16ffd	0.40905753
63	0xbefe50ee	-0.4967112
64	0xbe3e9d58	-0.1861471
65	0x3ef0fa30	0.47065878
66	0xbc6856d0	-0.014180854
67	0x3ea1d8b9	0.3161066
68	0xbf41ce20	-0.75705147
69	0x3dd39ded	0.10332856
70	0x3b1598e8	0.0022826735
71	0xbe9257bc	-0.2858256
72	0x3e3387c0	0.17532253
73	0x3f32f6a2	0.6990758
74	0xbf09a3dc	-0.53765655

swin.blocks.0.attn.proj.weight f4 [5, 5]
0	0x3f24f3b1	0.64434344
1	0xbf162c33	-0.5866119
2	0x3c9fddab	0.01951488
3	0xbdff8df7	-0.124782495
4	0xbf13a5a2	-0.5767461
5	0x3e0704b2	0.13185385
6	0x3e32f874	0.1747759
7	0xbf31e6f6	-0.69493043
8	0x3db8f754	0.09031549
9	0x3f31c942	0.6944772
10	0x3d2f7288	0.042833835
11	0x3dabfc7f	0.08397769
12	0x3f036b31	0.51335436
13	0x3e70aa7a	0.23502532
14	0x3ecf17df	0.404479
15	0xbf360565	-0.7110198
16	0x3f626a31	0.88443285
17	0xbead079f	-0.33794877
18	0x3e81bbfa	0.25338727
19	0xbf3e30d9	-0.74293286
20	0x3ebac346	0.36477107
21	0x3ec12ce7	0.3772957
22	0xbea31d2f	-0.31858203
23	0xbf376898	-0.7164397
24	0x3f2bfbdd	0.6718119

swin.blocks.0.attn.proj.bias f4 [5]
0	0x3d72e8d3	0.05930407
1	0x3eb09406	0.34487933
2	0x3ec10944	0.37702382
3	0xbc629e55	-0.013831695
4	0xbec89d33	-0.39182433

swin.blocks.0.norm1.weight f4 [5]
0	0x3f141d0c	0.5785682
1	0x3f874f1e	1.057102
2	0x3f855d5d	1.0419117
3	0x3f0cfd68	0.5507417
4	0x3f8cf360	1.1011772

swin.blocks.0.norm1.bias f4 [5]
0	0x3de76909	0.11299331
1	0xbe941996	-0.2892577
2	0xbe1e6ecc	-0.15471953
3	0xbd0aa512	-0.03384883
4	0x3e49b5c9	0.19698252

swin.blocks.0.mlp.fc1.weight f4 [20, 5]
0	0x3d8ef988	0.06981188
1	0x3f0b6e5b	0.54465264
2	0x3cd63e63	0.026152795
3	0x3e2ae039	0.16687097
4	0xbed7c5f4	-0.42143214
5	0x3f3eea92	0.74576676
6	0x3ed0e943	0.40802965
7	0x3ecec73f	0.40386388
8	0x3f01f322	0.50761616
9	0x3f19783b	0.5994908
10	0x3ebf3080	0.3734169
11	0x3eee1655	0.46501413
12	0xbd8caceb	-0.06868919
13	0xbf398328	-0.72465754
14	0x3dc444bb	0.09583422
15	0xbda761b8	-0.08172935
16	0x3f30ed1c	0.691118
17	0x3c44e4f6	0.012017479
18	0x3f19b82f	0.60046667
19	0xbe1375a9	-0.14400353
20	0xbe287f36	-0.16454777
21	0xbea1a9bc	-0.3157481
22	0xba60d2ef	-0.00085763534
23	0x3f84cb18	1.0374479
24	0xbcc7ddd8	-0.024397776
25	0xbf3b8fc1	-0.73266226
26	0xbef26100	-0.4733963
27	0x3f1c8ee5	0.6115554
28	0xbf25653d	-0.646076
29	0x3f494d51	0.786336
30	0x3f82b53e	1.0211561
31	0xbf95f976	-1.1716754
32	0xbe4bd4c0	-0.19905376
33	0x3f1fc975	0.62416774
34	0xbf0d3082	-0.5515214
35	0x3e283ecd	0.16430207
36	0x3ee410bc	0.44544017
37	0xbe850fec	-0.2598871
38	0xbfaedd09	-1.3661205
39	0x3de915bd	0.113810994
40	0xbe144f1e	-0.14483306
41	0x3d8adba5	0.06780175
42	0xbf217eea	-0.6308428
43	0x3f21d802	0.63220227
44	0x3f41fefd	0.75779706
45	0xbeff9c4b	-0.4992393
46	0x3f106048	0.56396914
47	0xbe16ac12	-0.14714077
48	0xbee75d98	-0.45188594
49	0xbf27d576	-0.6556009
50	0x3e085ce2	0.13316682
51	0xbf272ad3	-0.6529972
52	0x3f1120ac	0.5669048
53	0xbede96e5	-0.43474498
54	0x3ec6f31b	0.3885735
55	0xbf0b94fb	-0.545242
56	0xbccda914	-0.025105037
57	0x3ecb6ff9	0.39733866
58	0xbf51ca42	-0.81949246
59	0x3c3438f2	0.010999905
60	0xbdb4e43b	-0.08832594
61	0x3e9585e4	0.29203713
62	0xbee9ce81	-0.45665362
63	0x3ed9dab5	0.42549673
64	0x3e372b25	0.17887552
65	0xbffe072e	-1.9845941
66	0xbecf3024	-0.40466416
67	0x3ecb91fa	0.3975981
68	0xbf4d07f8	-0.80090284
69	0x3f128a6f	0.5724248
70	0x3f11f149	0.57008797
71	0xbe21ffbc	-0.15820211
72	0x3e201a2f	0.15634988
73	0x3d14d302	0.036334045
74	0x3f04f9e0	0.5194378
75	0xbf093d5a	-0.5360924
76	0xbfbdc52e	-1.48258
77	0xbf764837	-0.9620394
78	0x3dc3e2f1	0.0956477
79	0x3f2b14a4	0.6682837
80	0x3c55c2f1	0.013046966
81	0xbfd0a5d6	-1.6300609
82	0xbc36d9d5	-0.011160334
83	0xbebcd65f	-0.36882302
84	0xbeddeff4	-0.43347132
85	0x3ef952c3	0.48695955
86	0xbe3168be	-0.17325112
87	0xbead3b54	-0.33834326
88	0xbf81500e	-1.0102556
89	0xbe0ca7f7	-0.13735949
90	0x3f2b157c	0.6682966
91	0xbeea8cf5	-0.45810667
92	0xbf7d6d1b	-0.98994607
93	0x3e5a87fd	0.21340938
94	0xbe1b83b2	-0.15186957
95	0xbdc70d51	-0.09719337
96	0x3f125350	0.57158375
97	0xbf069087	-0.5256428
98	0x3d966b20	0.07344651
99	0xbe7a6e14	-0.24456054

swin.blocks.0.mlp.fc1.bias f4 [20]
0	0x3d65a543	0.05606581
1	0xbf6ca242	-0.92435086
2	0xbeb96690	-0.3621106
3	0x3d41a264	0.04727401
4	0x3e2d7be7	0.16941796
5	0xbf02ea6a	-0.5113894
6	0xbc147723	-0.0090616075
7	0x3eabeb7a	0.33578092
8	0x3f1a2929	0.60219055
9	0x3e9c63e0	0.3054495
10	0xbee6f006	-0.45104998
11	0x3e84741b	0.2586983
12	0xbf016d5d	-0.505575
13	0xbf5c1954	-0.8597615
14	0xbed538b4	-0.41644824
15	0xbebd7c3d	-0.3700885
16	0x3dcaf92a	0.099108055
17	0xbf262ee8	-0.64915323
18	0x3ec51317	0.38491127
19	0xbd527e9a	-0.051390268

swin.blocks.0.mlp.fc2.weight f4 [5, 20]
0	0x3ddfdb30	0.109304786
1	0x3f0d1bf2	0.55120766
2	0xbedbb2f1	-0.4290996
3	0x3d48f759	0.049064014
4	0xbe9ddccf	-0.30832526
5	0x3dfebadf	0.124379866
6	0xbe95701f	-0.29187104
7	0xbf4bb7f8	-0.7957759
8	0x3dc93ab5	0.098256506
9	0x3ea8bbec	0.32955873
10	0x3f3aa348	0.729054
11	0xbdada45d	-0.084786154
12	0x3ee8ea57	0.45491287
13	0xbf10fcb0	-0.5663557
14	0x3e0320fb	0.1280555
15	0x3db4dd00	0.08831215
16	0xbd7c57a2	-0.06160701
17	0xbe977979	-0.29584864
18	0x3dcffc71	0.10155571
19	0x3ec50814	0.38482726
20	0xbe6e9fb0	-0.23303103
21	0xbe620c03	-0.22074895
22	0xbd2b0fef	-0.041763242
23	0xbec5c000	-0.38623047
24	0x3ec9dd7d	0.39426795
25	0x3e215cd1	0.15758063
26	0x3d9ac786	0.07557587
27	0x3de35893	0.111008786
28	0xbdd8f2e0	-0.105932
29	0xbed3005e	-0.41211218
30	0x3e9f4990	0.3111081
31	0xbdd61d97	-0.104548626
32	0xbead9368	-0.33901525
33	0x3f1eae82	0.6198503
34	0x3d2a94bd	0.041645754
35	0xbc543e2c	-0.012954276
36	0x3ec6ba58	0.38814044
37	0x3e70cf3d	0.23516555
38	0x3e3ec36f	0.1862924
39	0xbef20c20	-0.47274876
40	0x3e6953cb	0.2278587
41	0xbf22e572	-0.63631356
42	0xba3b81dc	-0.00071528344
43	0x3c8b60e0	0.017013967
44	0x3e232aac	0.15934247
45	0xbf736800	-0.95080566
46	0x3dec4e72	0.115384
47	0x3e74a932	0.23892668
48	0x3e8f0e0e	0.2794041
49	0x3daf1cc9	0.08550412
50	0xbf4ffb45	-0.8124278
51	0x3e14634f	0.14491008
52	0xbedd079e	-0.43169874
53	0xbda02b54	-0.07820764
54	0xbeb55502	-0.35416418
55	0xbf7ac46b	-0.9795596
56	0xbf4825ff	-0.7818298
57	0xbe1b7c0b	-0.15184037
58	0x3e686595	0.22695
59	0xbd4cc847	-0.049995687
60	0x3e1756ba	0.14779177
61	0xbf008b8f	-0.5021295
62	0x3f04cda8	0.51876307
63	0xbeb3f1bd	-0.3514537
64	0xbf22d8c7	-0.63612026
65	0x3dbe69f9	0.092975564
66	0x3f0bb818	0.5457778
67	0x3eca2851	0.39483884
68	0xbf2ec918	-0.68275595
69	0x3ed3fab6	0.41402215
70	0x3f038c87	0.513863
71	0x3e9bf420	0.3045969
72	0x3da9b4c9	0.08286435
73	0x3e74f9cb	0.23923413
74	0xbed5b96e	-0.41743034
75	0x3e87ef1f	0.26549622
76	0x3e785196	0.24249873
77	0xbe61056f	-0.21974729
78	0x3e3b1004	0.18267828
79	0x3e107041	0.14105321
80	0xbe9e1085	-0.30871978
81	0x3fce2c6a	1.6107304
82	0x3f0844b0	0.5322981
83	0xbdd11b81	-0.10210324
84	0x3f097f89	0.5371023
85	0xbc4017ea	-0.011724452
86	0xbf7207ef	-0.94543356
87	0xbdeba7c3	-0.115066074
88	0xbf093092	-0.5358974
89	0xbf4ac49b	-0.79206246
90	0xbe82e219	-0.25563124
91	0xbf294a61	-0.6612912
92	0xbd19ed87	-0.03758004
93	0xbe8ac9af	-0.27106997
94	0x3dce1938	0.10063404
95	0x3fac9cee	1.3485391
96	0x3f521b45	0.8207286
97	0x3fa8cc68	1.318738
98	0xbfad3d73	-1.3534378
99	0xbda3985b	-0.07988044

swin.blocks.0.mlp.fc2.bias f4 [5]
0	0xbe57cb0f	-0.21073554
1	0x3ea499fd	0.32148734
2	0x3e9a900b	0.3018802
3	0xbe71ca56	-0.23612341
4	0xbf35b72b	-0.7098262

swin.blocks.0.norm2.weight f4 [5]
0	0x3f3b524b	0.73172444
1	0x3fa62ac1	1.2981797
2	0x3f2be9d3	0.6715366
3	0x3fc1d24a	1.51423
4	0x3e92d2da	0.28676492

swin.blocks.0.norm2.bias f4 [5]
0	0x3e27699e	0.16348884
1	0xbdfeb651	-0.12437118
2	0xbd7d1998	-0.061791986
3	0xbef38dba	-0.47569066
4	0x3d3a6992	0.045510836

swin.blocks.1.attn.q_bias f4 [5]
0	0xbf7da442	-0.9907876
1	0x3ea78eb7	0.3272607
2	0xbe821e8b	-0.25413927
3	0xbeb98278	-0.36232352
4	0xbe22994e	-0.15878794

swin.blocks.1.attn.v_bias f4 [5]
0	0xbe07fb6c	-0.13279504
1	0x3e5beb7c	0.21476549
2	0xbd409325	-0.047015328
3	0xbc0f07d8	-0.008729897
4	0xbcbb8292	-0.02288941

swin.blocks.1.attn.cpb_mlp.0.weight f4 [512, 2]
0	0x3cc59548	0.024119034
1	0xbde7ae7c	-0.11312577
2	0x3ef210c3	0.47278413
3	0x3e93d0b2	0.2887016
4	0xbca29f05	-0.019851217
5	0xbe602d73	-0.21892338
6	0x3eb74c45	0.35800377
7	0xbcad2ba3	-0.021138972
8	0xbcfa8ec8	-0.030585662
9	0xbd607e08	-0.054807693
10	0xbd436f41	-0.047713522
11	0xbf2de48e	-0.6792687
12	0xbd60bf86	-0.05487015
13	0x3bc080f0	0.0058747455
14	0xbdf6bd09	-0.12047774
15	0xbecc7f81	-0.39941028
16	0xbeb09334	-0.34487307
17	0x3e9eaeae	0.30992645
18	0xbd0edae1	-0.034876708
19	0x3d809f9d	0.06280444
20	0xbc9a2ec5	-0.01882113
21	0xbd92708e	-0.07150374
22	0xbd6935bb	-0.056936007
23	0xbe7346b2	-0.23757437
24	0x3e21b150	0.15790296
25	0x3e4e4eae	0.20147201
26	0xbeb5c4f8	-0.35501838
27	0xbded9d9f	-0.116023295
28	0x3e876318	0.2644279
29	0x3eb6f950	0.35737085
30	0xbdbd16e4	-0.09232882
31	0xbf413fed	-0.7548817
32	0xbe002588	-0.12514317
33	0x3e057034	0.13031083
34	0xbf42259f	-0.75838655
35	0xbec3d7c5	-0.38250557
36	0xbd820ce3	-0.06350114
37	0x3f0d3dc5	0.5517238
38	0xbdd02b78	-0.10164541
39	0xbf4b8bdc	-0.79510283
40	0xbd232edc	-0.03983961
41	0x3dee8101	0.11645699
42	0xbe655876	-0.22397026
43	0x3d9518ce	0.07280122
44	0xbecdafbc	-0.40173137
45	0xbe0baaa7	-0.13639317
46	0xbe41254d	-0.18861885
47	0x3e8d4e2a	0.27598697
48	0xbe5abaea	-0.21360365
49	0x3ebb7d34	0.3661896
50	0x3b06a454	0.0020544725
51	0xbe4e3e29	-0.201409
52	0x3e21bd56	0.15794882
53	0x3ed479ba	0.4149912
54	0xbd8a8692	-0.067639485
55	0x3e25f011	0.1620486
56	0xbd21a6d4	-0.03946574
57	0xbe146a7e	-0.14493749
58	0xbf30ad72	-0.69014657
59	0xbe32cda2	-0.17461255
60	0x3ee702d1	0.45119336
61	0x3e9e53b5	0.30923238
62	0xbe3b8eb8	-0.18316162
63	0x3ed21473	0.41031227
64	0x3c905fec	0.017623864
65	0xbeaff327	-0.34365198
66	0xbd312fe1	-0.04325855
67	0xbd2efd9d	-0.042722333
68	0x3e91555d	0.2838544
69	0x3ebb7ada	0.36617166
70	0xbee6e1eb	-0.45094237
71	0xbe5a63e1	-0.21327163
72	0xbe23cbee	-0.15995762
73	0xbef5be4a	-0.47996742
74	0xbe2b4b3c	-0.16727918
75	0xbcd2b95b	-0.02572315
76	0xbc1cb8d8	-0.009565555
77	0xbd395710	-0.045249045
78	0xbe703625	-0.23458154
79	0x3e98b08f	0.29822204
80	0xbeb81e78	-0.35960746
81	0xbf661372	-0.8987342
82	0x3f1bc60c	0.6084907
83	0x3cf0c608	0.029391304
84	0xbc634983	-0.013872507
85	0xbe01cda3	-0.126761
86	0xbd8df9cd	-0.06932411
87	0xbf202b79	-0.62566334
88	0x3e2d36fd	0.16915508
89	0xbdb6d7cf	-0.08927881
90	0xbde93606	-0.11387257
91	0xbd8e2bdf	-0.069419615
92	0xbdd991b4	-0.10623494
93	0xbeccdea2	-0.40013605
94	0xbe17739b	-0.14790194
95	0xbf23a06e	-0.6391667
96	0x3e6aebb4	0.22941476
97	0x3e0e1eb8	0.13878906
98	0xbe962f8b	-0.29333147
99	0xbdecd498	-0.115639865
100	0xbd9475e5	-0.07249049
101	0x3e9d47f3	0.30718955
102	0xbeaa9ecd	-0.3332428
103	0x3c26c276	0.010178199
104	0xbbf54eae	-0.007486186
105	0x3db7bb3e	0.089712605
106	0xbd2bc91d	-0.041939843
107	0xbadc7420	-0.0016819276
108	0xbd570f7b	-0.052504998
109	0xbeea39aa	-0.4574712
110	0x3dce3414	0.10068527
111	0xbb3745b1	-0.0027965123
112	0xbc849746	-0.016185414
113	0xbe387657	-0.18013893
114	0x3ecd75cd	0.40128937
115	0xbe43ce2e	-0.1912162
116	0xbd031ca6	-0.032009743
117	0x3e4e5b5c	0.20152038
118	0x3bcaed09	0.0061928076
119	0x3e26a6ed	0.16274615
120	0xbecbfbd1	-0.39840558
121	0xbcc4e537	-0.02403508
122	0xbcfc4941	-0.030796649
123	0x3e9d6474	0.30740702
124	0xbda0b4db	-0.078469954
125	0x3e5fb8bf	0.21847819
126	0xbda3937e	-0.07987116
127	0x3ebdd690	0.3707776
128	0x3d8735ed	0.066020824
129	0x3cdac5ed	0.026705706
130	0x3efb2372	0.4905048
131	0xbe16070e	-0.14651129
132	0xbd3f629d	-0.046724904
133	0x3ebf6ca7	0.37387583
134	0xbf458cfd	-0.77168256
135	0xbf16c98e	-0.589013
136	0x3cd694ab	0.026193937
137	0x3e9116bf	0.28337666
138	0xbba9c0d8	-0.0051804595
139	0x3bb7f929	0.005614419
140	0xbd3a152f	-0.04543036
141	0xbeacd70f	-0.33757827
142	0xbe88ebad	-0.26742306
143	0x3ea3b9ff	0.3197784
144	0xbef20153	-0.47266635
145	0xbdffa43b	-0.12482496
146	0xbcef5e64	-0.029219814
147	0x3edb1c69	0.42795113
148	0xbda7a970	-0.081866145
149	0x3ecc273e	0.3987369
150	0xbcfc1a7d	-0.03077435
151	0xbd362e83	-0.04447795
152	0x3ef4e49a	0.4783066
153	0xbe7d98e9	-0.24765362
154	0xbc2826c6	-0.010263151
155	0xbf176872	-0.59143746
156	0xbf20549c	-0.62629104
157	0xbe55edfa	-0.20891562
158	0x3e25f432	0.16206434
159	0x3affdc91	0.001952069
160	0x3e815d43	0.25266466
161	0x3c0c0831	0.008546875
162	0xbef364c9	-0.4753783
163	0x3e2a5305	0.16633232
164	0x3d98d620	0.07462716
165	0x3dd7f660	0.10545039
166	0x3d47d828	0.048790127
167	0xbddd9474	-0.10819331
168	0x3f1e9d46	0.6195873
169	0xbc330ab8	-0.0109278485
170	0xbe1bc596	-0.15212092
171	0x3e9a2f5d	0.3011426
172	0xbe5bb1d9	-0.21454562
173	0x3d1fadc9	0.038984094
174	0xbee5635c	-0.44802368
175	0xbdc9857d	-0.09839914
176	0x3c193f46	0.0093534645
177	0xbeccd293	-0.40004405
178	0xbe4fc112	-0.20288494
179	0xbd04497b	-0.03229664
180	0x3c1ccf23	0.00957087
181	0x3ed9afb0	0.4251685
182	0xbd21a514	-0.03946407
183	0xbf504e5c	-0.81369567
184	0xbba13842	-0.0049200365
185	0xbe0a7180	-0.1351986
186	0x3e6863b5	0.22694285
187	0xbd52812a	-0.05139271
188	0xbd03fb96	-0.032222353
189	0x3d84772c	0.06468043
190	0xbd9c2ce4	-0.0762575
191	0x3e9c7407	0.30557272
192	0x3e683606	0.22676858
193	0xbd3c30ce	-0.04594498
194	0xbacdd7e0	-0.0015704595
195	0xbe062561	-0.13100196
196	0xbd802998	-0.062579334
197	0x3ee171dc	0.4403218
198	0xbc31b654	-0.010846693
199	0x3e0916eb	0.13387649
200	0xbda44256	-0.08020465
201	0x3cb98813	0.022647893
202	0xbe27bc85	-0.16380508
203	0xbe80037e	-0.25002664
204	0xbe873a19	-0.26411512
205	0x3e439a46	0.1910182
206	0xbed9792f	-0.42475268
207	0xbd84cb51	-0.06484092
208	0xbd453133	-0.048142623
209	0xbd805483	-0.06266119
210	0xbd99e258	-0.07513875
211	0xbec47517	-0.38370582
212	0x3c5cf29a	0.013485575
213	0xbd98d834	-0.074631125
214	0x3c9245e8	0.0178556
215	0xbf579ff1	-0.84228426
216	0xbddfd728	-0.1092971
217	0xbf3bd164	-0.7336638
218	0xbf2c9a9e	-0.6742343
219	0xbedcadc9	-0.43101338
220	0xbc9d8338	-0.019227609
221	0x3c57670d	0.013147128
222	0xbd8a45c5	-0.06751589
223	0xbf4966c0	-0.7867241
224	0xbe0c8261	-0.1372161
225	0xbedfc090	-0.437016
226	0x3d16bad6	0.036799274
227	0xbec0df5b	-0.37670407
228	0xbf0c4536	-0.5479311
229	0xbdc4e337	-0.0961365
230	0xbbd9d03f	-0.0066471393
231	0xbe0d5727	-0.13802777
232	0xbcc213cc	-0.02369108
233	0xbe9692bc	-0.29408824
234	0x3c7aea29	0.015314617
235	0xbd8fbfc4	-0.07018998
236	0xbd0ba8e8	-0.03409663
237	0x3ec9d540	0.3942051
238	0x3cc44677	0.023959382
239	0xbebfa346	-0.37429255
240	0x3bb22551	0.0054365774
241	0x3ecf77fa	0.40521222
242	0xbee40301	-0.44533542
243	0xbd05a3e9	-0.03262702
244	0xbe676afb	-0.22599404
245	0xbee3d982	-0.44501883
246	0xbe24defc	-0.16100687
247	0xbe082170	-0.13294005
248	0xbe401f0a	-0.1876184
249	0xbdc2c5ec	-0.09510407
250	0xbc987fc6	-0.018615615
251	0x3cd32aab	0.025777182
252	0x3bceb07e	0.0063076606
253	0x3e5c1f34	0.21496278
254	0x3f165fa6	0.587397
255	0x3e1f35ad	0.1554782
